…
s.Flatten())\n","model.add(layers.Dense(10, activation = \"softmax\"))\n","\n","# Compilando o modelo\n","opt = tf.keras.optimizers.Adam(lr = 0.001)\n","model.compile(optimizer = opt, loss = 'categorical_crossentropy', metrics = ['accuracy'])\n","\n","model.summary()"],"execution_count":11,"outputs":[{"output_type":"stream","text":["Model: \"sequential\"\n","_________________________________________________________________\n","Layer (type)                 Output Shape              Param #   \n","=================================================================\n","conv2d (Conv2D)              (None, 30, 30, 32)        896       \n","_________________________________________________________________\n","conv2d_1 (Conv2D)            (None, 28, 28, 32)        9248      \n","_________________________________________________________________\n","max_pooling2d (MaxPooling2D) (None, 14, 14, 32)        0         \n","_________________________________________________________________\n","flatten (Flatten)            (None, 6272)              0         \n","_________________________________________________________________\n","dense (Dense)                (None, 10)                62730     \n","=================================================================\n","Total params: 72,874\n","Trainable params: 72,874\n","Non-trainable params: 0\n","_________________________________________________________________\n"],"name":"stdout"}]},{"cell_type":"markdown","metadata":{"id":"WT72R5qx7iYw","colab_type":"text"},"source":["### Treinamento do modelo"]},{"cell_type":"code","metadata":{
…
ptimizer = opt, loss = 'categorical_crossentropy', metrics = ['accuracy'])\n","\n","print(model3.summary())\n","\n","model3.fit(x_train, y_train_oh, epochs = 100, batch_size = 32, \n","          class_weight=train_class_weights, validation_data = (x_val, y_val_oh))"],"execution_count":22,"outputs":[{"output_type":"stream","text":["Model: \"sequential_3\"\n","_________________________________________________________________\n","Layer (type)                 Output Shape              Param #   \n","=================================================================\n","conv2d_6 (Conv2D)            (None, 30, 30, 32)        896       \n","_________________________________________________________________\n","leaky_re_lu (LeakyReLU)      (None, 30, 30, 32)        0         \n","_________________________________________________________________\n","conv2d_7 (Conv2D)            (None, 28, 28, 32)        9248      \n","_________________________________________________________________\n","leaky_re_lu_1 (LeakyReLU)    (None, 28, 28, 32)        0         \n","_________________________________________________________________\n","max_pooling2d_3 (MaxPooling2 (None, 14, 14, 32)        0         \n","_________________________________________________________________\n","flatten_3 (Flatten)          (None, 6272)              0         \n","_________________________________________________________________\n","dense_3 (Dense)              (None, 10)                62730     \n","=================================================================\n","Total params: 72,874\n","Trainable params: 72,874\n","Non-trainable params: 0\n","_________________________________________________________________\n","None\n","Epoch 1/100\n","1250/1250 [==============================] - 11s 9ms/step - loss: 1.4347 - accuracy: 0.4929 - val_loss: 1.2465 - val_accuracy: 0.5587\n","Epoch
…
(optimizer = opt, loss = 'categorical_crossentropy', metrics = ['accuracy'])\n","\n","print(model.summary())\n","\n","model.fit(x_train, y_train_oh, epochs = 100, batch_size = 32, \n","          class_weight=train_class_weights, validation_data = (x_val, y_val_oh))"],"execution_count":29,"outputs":[{"output_type":"stream","text":["Model: \"sequential_5\"\n","_________________________________________________________________\n","Layer (type)                 Output Shape              Param #   \n","=================================================================\n","conv2d_10 (Conv2D)           (None, 30, 30, 32)        896       \n","_________________________________________________________________\n","conv2d_11 (Conv2D)           (None, 28, 28, 32)        9248      \n","_________________________________________________________________\n","max_pooling2d_5 (MaxPooling2 (None, 14, 14, 32)        0         \n","_________________________________________________________________\n","conv2d_12 (Conv2D)           (None, 12, 12, 32)        9248      \n","_________________________________________________________________\n","max_pooling2d_6 (MaxPooling2 (None, 6, 6, 32)          0         \n","_________________________________________________________________\n","conv2d_13 (Conv2D)           (None, 6, 6, 32)          9248      \n","_________________________________________________________________\n","max_pooling2d_7 (MaxPooling2 (None, 3, 3, 32)          0         \n","_________________________________________________________________\n","flatten_5 (Flatten)          (None, 288)               0         \n","_________________________________________________________________\n","dense_5 (Dense)              (None, 10)                2890      \n","=================================================================\n","Total params: 31,530\n","Trainable params: 31,530\n","Non-trainable params: 0\n","_________________________________________________________________\n","None\n","Epoch 1/100\n","1250/1250 [==============================] - 11s 9ms/step - loss: 1.5824 - accuracy: 0.4267 - val_loss: 1.2935 - val_accuracy: 0.5362\n","Epoc
…
(optimizer = opt, loss = 'categorical_crossentropy', metrics = ['accuracy'])\n","\n","print(model.summary())\n","\n","model.fit(x_train, y_train_oh, epochs = 100, batch_size = 32, \n","          class_weight=train_class_weights, validation_data = (x_val, y_val_oh))"],"execution_count":26,"outputs":[{"output_type":"stream","text":["Model: \"sequential_4\"\n","_________________________________________________________________\n","Layer (type)                 Output Shape              Param #   \n","=================================================================\n","conv2d_24 (Conv2D)           (None, 30, 30, 32)        896       \n","_________________________________________________________________\n","conv2d_25 (Conv2D)           (None, 28, 28, 32)        9248      \n","_________________________________________________________________\n","max_pooling2d_12 (MaxPooling (None, 14, 14, 32)        0         \n","_________________________________________________________________\n","conv2d_26 (Conv2D)           (None, 12, 12, 64)        18496     \n","_________________________________________________________________\n","conv2d_27 (Conv2D)           (None, 10, 10, 64)        36928     \n","_________________________________________________________________\n","max_pooling2d_13 (MaxPooling (None, 5, 5, 64)          0         \n","_________________________________________________________________\n","conv2d_28 (Conv2D)           (None, 5, 5, 128)         73856     \n","_________________________________________________________________\n","conv2d_29 (Conv2D)           (None, 5, 5, 128)         147584    \n","_________________________________________________________________\n","max_pooling2d_14 (MaxPooling (None, 2, 2, 128)         0         \n","_________________________________________________________________\n","flatten_4 (Flatten)          (None, 512)               0         \n","_________________________________________________________________\n","dense_8 (Dense)              (None, 512)               262656    \n","_________________________________________________________________\n","dense_9 (Dense)              (None, 10)                5130      \n","=================================================================\n","Total params: 554,794\n","Trainable params: 554,794\n","Non-trainable params: 0\n","_________________________________________________________________\n","None\n","Epoch 1/100\n","1250/1250 [==============================] - 8s 7ms/step - loss: 1.5273 - accuracy: 0.4434 - val_loss: 1.2379 - val_accuracy: 0.5461\n","Epo
…
timizer = opt, loss = 'categorical_crossentropy', metrics = ['accuracy'])\n","\n","print(model4.summary())\n","\n","model4.fit(x_train, y_train_oh, epochs = 100, batch_size = 32, \n","          class_weight=train_class_weights, validation_data = (x_val, y_val_oh))"],"execution_count":47,"outputs":[{"output_type":"stream","text":["Model: \"sequential_11\"\n","_________________________________________________________________\n","Layer (type)                 Output Shape              Param #   \n","=================================================================\n","conv2d_66 (Conv2D)           (None, 30, 30, 32)        896       \n","_________________________________________________________________\n","conv2d_67 (Conv2D)           (None, 28, 28, 32)        9248      \n","_________________________________________________________________\n","max_pooling2d_33 (MaxPooling (None, 14, 14, 32)        0         \n","_________________________________________________________________\n","conv2d_68 (Conv2D)           (None, 12, 12, 64)        18496     \n","_________________________________________________________________\n","conv2d_69 (Conv2D)           (None, 10, 10, 64)        36928     \n","_________________________________________________________________\n","max_pooling2d_34 (MaxPooling (None, 5, 5, 64)          0         \n","_________________________________________________________________\n","conv2d_70 (Conv2D)           (None, 5, 5, 128)         73856     \n","_________________________________________________________________\n","conv2d_71 (Conv2D)           (None, 5, 5, 128)         147584    \n","_________________________________________________________________\n","max_pooling2d_35 (MaxPooling (None, 2, 2, 128)         0         \n","_________________________________________________________________\n","flatten_11 (Flatten)         (None, 512)               0         \n","_________________________________________________________________\n","dropout_4 (Dropout)          (None, 512)               0         \n","_________________________________________________________________\n","dense_22 (Dense)             (None, 512)               262656    \n","_________________________________________________________________\n","dense_23 (Dense)             (None, 10)                5130      \n","=================================================================\n","Total params: 554,794\n","Trainable params: 554,794\n","Non-trainable params: 0\n","_________________________________________________________________\n","None\n","Epoch 1/100\n","1250/1250 [==============================] - 9s 7ms/step - loss: 1.8393 - accuracy: 0.3303 - val_loss: 1.5690 - val_accuracy: 0.4395\n","Epo
…
optimizer = opt, loss = 'categorical_crossentropy', metrics = ['accuracy'])\n","\n","print(model.summary())\n","\n","model.fit(x_train, y_train_oh, epochs = 100, batch_size = 32, \n","          class_weight=train_class_weights, validation_data = (x_val, y_val_oh))"],"execution_count":51,"outputs":[{"output_type":"stream","text":["Model: \"sequential_12\"\n","_________________________________________________________________\n","Layer (type)                 Output Shape              Param #   \n","=================================================================\n","conv2d_72 (Conv2D)           (None, 30, 30, 32)        896       \n","_________________________________________________________________\n","batch_normalization_21 (Batc (None, 30, 30, 32)        128       \n","_________________________________________________________________\n","conv2d_73 (Conv2D)           (None, 28, 28, 32)        9248      \n","_________________________________________________________________\n","max_pooling2d_36 (MaxPooling (None, 14, 14, 32)        0         \n","_________________________________________________________________\n","batch_normalization_22 (Batc (None, 14, 14, 32)        128       \n","_________________________________________________________________\n","conv2d_74 (Conv2D)           (None, 12, 12, 64)        18496     \n","_________________________________________________________________\n","batch_normalization_23 (Batc (None, 12, 12, 64)        256       \n","_________________________________________________________________\n","conv2d_75 (Conv2D)           (None, 10, 10, 64)        36928     \n","_________________________________________________________________\n","max_pooling2d_37 (MaxPooling (None, 5, 5, 64)          0         \n","_________________________________________________________________\n","batch_normalization_24 (Batc (None, 5, 5, 64)          256       \n","_________________________________________________________________\n","conv2d_76 (Conv2D)           (None, 5, 5, 128)         73856     \n","_________________________________________________________________\n","batch_normalization_25 (Batc (None, 5, 5, 128)         512       \n","_________________________________________________________________\n","conv2d_77 (Conv2D)           (None, 5, 5, 128)         147584    \n","_________________________________________________________________\n","max_pooling2d_38 (MaxPooling (None, 2, 2, 128)         0         \n","_________________________________________________________________\n","flatten_12 (Flatten)         (None, 512)               0         \n","_________________________________________________________________\n","batch_normalization_26 (Batc (None, 512)               2048      \n","_________________________________________________________________\n","dropout_5 (Dropout)          (None, 512)               0         \n","_________________________________________________________________\n","dense_24 (Dense)             (None, 512)               262656    \n","_________________________________________________________________\n","batch_normalization_27 (Batc (None, 512)               2048      \n","_________________________________________________________________\n","dense_25 (Dense)             (None, 10)                5130      \n","=================================================================\n","Total params: 560,170\n","Trainable params: 557,482\n","Non-trainable params: 2,688\n","_________________________________________________________________\n","None\n","Epoch 1/100\n","1250/1250 [==============================] - 10s 8ms/step - loss: 1.8877 - accuracy: 0.4672 - val_loss: 1.5067 - val_accuracy: 0.5872\n"
…
timizer = opt, loss = 'categorical_crossentropy', metrics = ['accuracy'])\n","\n","print(model2.summary())\n","\n","model2.fit(x_train, y_train_oh, epochs = 100, batch_size = 32, \n","          class_weight=train_class_weights, validation_data = (x_val, y_val_oh))"],"execution_count":54,"outputs":[{"output_type":"stream","text":["Model: \"sequential_13\"\n","_________________________________________________________________\n","Layer (type)                 Output Shape              Param #   \n","=================================================================\n","conv2d_78 (Conv2D)           (None, 32, 32, 32)        896       \n","_________________________________________________________________\n","batch_normalization_28 (Batc (None, 32, 32, 32)        128       \n","_________________________________________________________________\n","conv2d_79 (Conv2D)           (None, 32, 32, 32)        9248      \n","_________________________________________________________________\n","max_pooling2d_39 (MaxPooling (None, 16, 16, 32)        0         \n","_________________________________________________________________\n","batch_normalization_29 (Batc (None, 16, 16, 32)        128       \n","_________________________________________________________________\n","conv2d_80 (Conv2D)           (None, 16, 16, 64)        18496     \n","_________________________________________________________________\n","batch_normalization_30 (Batc (None, 16, 16, 64)        256       \n","_________________________________________________________________\n","conv2d_81 (Conv2D)           (None, 16, 16, 64)        36928     \n","_________________________________________________________________\n","max_pooling2d_40 (MaxPooling (None, 8, 8, 64)          0         \n","_________________________________________________________________\n","batch_normalization_31 (Batc (None, 8, 8, 64)          256       \n","_________________________________________________________________\n","conv2d_82 (Conv2D)           (None, 8, 8, 128)         73856     \n","_________________________________________________________________\n","batch_normalization_32 (Batc (None, 8, 8, 128)         512       \n","_________________________________________________________________\n","conv2d_83 (Conv2D)           (None, 8, 8, 128)         147584    \n","_________________________________________________________________\n","max_pooling2d_41 (MaxPooling (None, 4, 4, 128)         0         \n","_________________________________________________________________\n","flatten_13 (Flatten)         (None, 2048)              0         \n","_________________________________________________________________\n","batch_normalization_33 (Batc (None, 2048)              8192      \n","_________________________________________________________________\n","dropout_6 (Dropout)          (None, 2048)              0         \n","_________________________________________________________________\n","dense_26 (Dense)             (None, 512)               1049088   \n","_________________________________________________________________\n","batch_normalization_34 (Batc (None, 512)               2048      \n","_________________________________________________________________\n","dense_27 (Dense)             (None, 10)                5130      \n","=================================================================\n","Total params: 1,352,746\n","Trainable params: 1,346,986\n","Non-trainable params: 5,760\n","_________________________________________________________________\n","None\n","Epoch 1/100\n","1250/1250 [==============================] - 11s 9ms/step - loss: 1.7456 - accuracy: 0.5246 - val_loss: 1.9994 - val_accuracy: 0.429
…
